…
Checkpoint_Head_MagFace_Backbone_efficientnet_b2_Dataset_CelebA_p_idx{'male': 1.0, 'female': 1.0}_p_img{'male': 1.0, 'female': 1.0}_Epoch_
Found checkpoints for this model: ["Checkpoint_Head_MagFace_Backbone_efficientnet_b2_Dataset_CelebA_p_idx{'male': 1.0, 'female': 1.0}_p_img{'male': 1.0, 'female': 1.0}_Epoch_1.pth"]
Loading Checkpoint 'Checkpoints/timm_explore_few_epochs/efficientnet_b2_MagFace/Checkpoint_Head_MagFace_Backbone_efficientnet_b2_Dataset_CelebA_p_idx{'male': 1.0, 'female': 1.0}_p_img{'male': 1.0, 'female': 1.0}_Epoch_1.pth'
ModelEmaV2(
  (module): Network(
    (head): MagFace()
    (backbone): EfficientNet(
      (conv_stem): Conv2d(3, 32, kernel_size=(3, 3), stride=(2, 2), padding=(1, 1), bias=False)
      (bn1): BatchNorm2d(32, eps=1e-05, momentum=0.1, affine=True, track_running_stats=True)
      (act1): SiLU(inplace=True)
      (blocks): Sequential(
        (0): Sequential(
          (0): DepthwiseSeparableConv(
            (conv_dw): Conv2d(32, 32, kernel_size=(3, 3), stride=(1, 1), padding=(1, 1), groups=32, bias=False)
            (bn1): BatchNorm2d(32, eps=1e-05, momentum=0.1, affine=True, track_running_stats=True)
            (act1): SiLU(inplace=True)
            (se): SqueezeExcite(
              (conv_reduce): Conv2d(32, 8, kernel_size=(1, 1), stride=(1, 1))
              (act1): SiLU(inplace=True)
              (conv_expand): Conv2d(8, 32, kernel_size=(1, 1), stride=(1, 1))
              (gate): Sigmoid()
            )
            (conv_pw): Conv2d(32, 16, kernel_size=(1, 1), stride=(1, 1), bias=False)
            (bn2): BatchNorm2d(16, eps=1e-05, momentum=0.1, affine=True, track_running_stats=True)
            (act2): Identity()
          )
          (1): DepthwiseSeparableConv(
            (conv_dw): Conv2d(16, 16, kernel_size=(3, 3), stride=(1, 1), padding=(1, 1), groups=16, bias=False)
            (bn1): BatchNorm2d(16, eps=1e-05, momentum=0.1, affine=True, track_running_stats=True)
            (act1): SiLU(inplace=True)
            (se): SqueezeExcite(
              (conv_reduce): Conv2d(16, 4, kernel_size=(1, 1), stride=(1, 1))
              (act1): SiLU(inplace=True)
              (conv_expand): Conv2d(4, 16, kernel_size=(1, 1), stride=(1, 1))
              (gate): Sigmoid()
            )
            (conv_pw): Conv2d(16, 16, kernel_size=(1, 1), stride=(1, 1), bias=False)
            (bn2): BatchNorm2d(16, eps=1e-05, momentum=0.1, affine=True, track_running_stats=True)
            (act2): Identity()
          )
        )
        (1): Sequential(
          (0): InvertedResidual(
            (conv_pw): Conv2d(16, 96, kernel_size=(1, 1), stride=(1, 1), bias=False)
            (bn1): BatchNorm2d(96, eps=1e-05, momentum=0.1, affine=True, track_running_stats=True)
            (act1): SiLU(inplace=True)
            (conv_dw): Conv2d(96, 96, kernel_size=(3, 3), stride=(2, 2), padding=(1, 1), groups=96, bias=False)
            (bn2): BatchNorm2d(96, eps=1e-05, momentum=0.1, affine=True, track_running_stats=True)
            (act2): SiLU(inplace=True)
            (se): SqueezeExcite(
              (conv_reduce): Conv2d(96, 4, kernel_size=(1, 1), stride=(1, 1))
              (act1): SiLU(inplace=True)
              (conv_expand): Conv2d(4, 96, kernel_size=(1, 1), stride=(1, 1))
              (gate): Sigmoid()
            )
            (conv_pwl): Conv2d(96, 24, kernel_size=(1, 1), stride=(1, 1), bias=False)
            (bn3): BatchNorm2d(24, eps=1e-05, momentum=0.1, affine=True, track_running_stats=True)
          )
          (1): InvertedResidual(
            (conv_pw): Conv2d(24, 144, kernel_size=(1, 1), stride=(1, 1), bias=False)
            (bn1): BatchNorm2d(144, eps=1e-05, momentum=0.1, affine=True, track_running_stats=True)
            (act1): SiLU(inplace=True)
            (conv_dw): Conv2d(144, 144, kernel_size=(3, 3), stride=(1, 1), padding=(1, 1), groups=144, bias=False)
            (bn2): BatchNorm2d(144, eps=1e-05, momentum=0.1, affine=True, track_running_stats=True)
            (act2): SiLU(inplace=True)
            (se): SqueezeExcite(
              (conv_reduce): Conv2d(144, 6, kernel_size=(1, 1), stride=(1, 1))
              (act1): SiLU(inplace=True)
              (conv_expand): Conv2d(6, 144, kernel_size=(1, 1), stride=(1, 1))
              (gate): Sigmoid()
            )
            (conv_pwl): Conv2d(144, 24, kernel_size=(1, 1), stride=(1, 1), bias=False)
            (bn3): BatchNorm2d(24, eps=1e-05, momentum=0.1, affine=True, track_running_stats=True)
          )
          (2): InvertedResidual(
            (conv_pw): Conv2d(24, 144, kernel_size=(1, 1), stride=(1, 1), bias=False)
            (bn1): BatchNorm2d(144, eps=1e-05, momentum=0.1, affine=True, track_running_stats=True)
            (act1): SiLU(inplace=True)
            (conv_dw): Conv2d(144, 144, kernel_size=(3, 3), stride=(1, 1), padding=(1, 1), groups=144, bias=False)
            (bn2): BatchNorm2d(144, eps=1e-05, momentum=0.1, affine=True, track_running_stats=True)
            (act2): SiLU(inplace=True)
            (se): SqueezeExcite(
              (conv_reduce): Conv2d(144, 6, kernel_size=(1, 1), stride=(1, 1))
              (act1): SiLU(inplace=True)
              (conv_expand): Conv2d(6, 144, kernel_size=(1, 1), stride=(1, 1))
              (gate): Sigmoid()
            )
            (conv_pwl): Conv2d(144, 24, kernel_size=(1, 1), stride=(1, 1), bias=False)
            (bn3): BatchNorm2d(24, eps=1e-05, momentum=0.1, affine=True, track_running_stats=True)
          )
        )
        (2): Sequential(
          (0): InvertedResidual(
            (conv_pw): Conv2d(24, 144, kernel_size=(1, 1), stride=(1, 1), bias=False)
            (bn1): BatchNorm2d(144, eps=1e-05, momentum=0.1, affine=True, track_running_stats=True)
            (act1): SiLU(inplace=True)
            (conv_dw): Conv2d(144, 144, kernel_size=(5, 5), stride=(2, 2), padding=(2, 2), groups=144, bias=False)
            (bn2): BatchNorm2d(144, eps=1e-05, momentum=0.1, affine=True, track_running_stats=True)
            (act2): SiLU(inplace=True)
            (se): SqueezeExcite(
              (conv_reduce): Conv2d(144, 6, kernel_size=(1, 1), stride=(1, 1))
              (act1): SiLU(inplace=True)
              (conv_expand): Conv2d(6, 144, kernel_size=(1, 1), stride=(1, 1))
              (gate): Sigmoid()
            )
            (conv_pwl): Conv2d(144, 48, kernel_size=(1, 1), stride=(1, 1), bias=False)
            (bn3): BatchNorm2d(48, eps=1e-05, momentum=0.1, affine=True, track_running_stats=True)
          )
          (1): InvertedResidual(
            (conv_pw): Conv2d(48, 288, kernel_size=(1, 1), stride=(1, 1), bias=False)
            (bn1): BatchNorm2d(288, eps=1e-05, momentum=0.1, affine=True, track_running_stats=True)
            (act1): SiLU(inplace=True)
            (conv_dw): Conv2d(288, 288, kernel_size=(5, 5), stride=(1, 1), padding=(2, 2), groups=288, bias=False)
            (bn2): BatchNorm2d(288, eps=1e-05, momentum=0.1, affine=True, track_running_stats=True)
            (act2): SiLU(inplace=True)
            (se): SqueezeExcite(
              (conv_reduce): Conv2d(288, 12, kernel_size=(1, 1), stride=(1, 1))
              (act1): SiLU(inplace=True)
              (conv_expand): Conv2d(12, 288, kernel_size=(1, 1), stride=(1, 1))
              (gate): Sigmoid()
            )
            (conv_pwl): Conv2d(288, 48, kernel_size=(1, 1), stride=(1, 1), bias=False)
            (bn3): BatchNorm2d(48, eps=1e-05, momentum=0.1, affine=True, track_running_stats=True)
          )
          (2): InvertedResidual(
            (conv_pw): Conv2d(48, 288, kernel_size=(1, 1), stride=(1, 1), bias=False)
            (bn1): BatchNorm2d(288, eps=1e-05, momentum=0.1, affine=True, track_running_stats=True)
            (act1): SiLU(inplace=True)
            (conv_dw): Conv2d(288, 288, kernel_size=(5, 5), stride=(1, 1), padding=(2, 2), groups=288, bias=False)
            (bn2): BatchNorm2d(288, eps=1e-05, momentum=0.1, affine=True, track_running_stats=True)
            (act2): SiLU(inplace=True)
            (se): SqueezeExcite(
              (conv_reduce): Conv2d(288, 12, kernel_size=(1, 1), stride=(1, 1))
              (act1): SiLU(inplace=True)
              (conv_expand): Conv2d(12, 288, kernel_size=(1, 1), stride=(1, 1))
              (gate): Sigmoid()
            )
            (conv_pwl): Conv2d(288, 48, kernel_size=(1, 1), stride=(1, 1), bias=False)
            (bn3): BatchNorm2d(48, eps=1e-05, momentum=0.1, affine=True, track_running_stats=True)
          )
        )
        (3): Sequential(
          (0): InvertedResidual(
            (conv_pw): Conv2d(48, 288, kernel_size=(1, 1), stride=(1, 1), bias=False)
            (bn1): BatchNorm2d(288, eps=1e-05, momentum=0.1, affine=True, track_running_stats=True)
            (act1): SiLU(inplace=True)
            (conv_dw): Conv2d(288, 288, kernel_size=(3, 3), stride=(2, 2), padding=(1, 1), groups=288, bias=False)
            (bn2): BatchNorm2d(288, eps=1e-05, momentum=0.1, affine=True, track_running_stats=True)
            (act2): SiLU(inplace=True)
            (se): SqueezeExcite(
              (conv_reduce): Conv2d(288, 12, kernel_size=(1, 1), stride=(1, 1))
              (act1): SiLU(inplace=True)
              (conv_expand): Conv2d(12, 288, kernel_size=(1, 1), stride=(1, 1))
              (gate): Sigmoid()
            )
            (conv_pwl): Conv2d(288, 88, kernel_size=(1, 1), stride=(1, 1), bias=False)
            (bn3): BatchNorm2d(88, eps=1e-05, momentum=0.1, affine=True, track_running_stats=True)
          )
          (1): InvertedResidual(
            (conv_pw): Conv2d(88, 528, kernel_size=(1, 1), stride=(1, 1), bias=False)
            (bn1): BatchNorm2d(528, eps=1e-05, momentum=0.1, affine=True, track_running_stats=True)
            (act1): SiLU(inplace=True)
            (conv_dw): Conv2d(528, 528, kernel_size=(3, 3), stride=(1, 1), padding=(1, 1), groups=528, bias=False)
            (bn2): BatchNorm2d(528, eps=1e-05, momentum=0.1, affine=True, track_running_stats=True)
            (act2): SiLU(inplace=True)
            (se): SqueezeExcite(
              (conv_reduce): Conv2d(528, 22, kernel_size=(1, 1), stride=(1, 1))
              (act1): SiLU(inplace=True)
              (conv_expand): Conv2d(22, 528, kernel_size=(1, 1), stride=(1, 1))
              (gate): Sigmoid()
            )
            (conv_pwl): Conv2d(528, 88, kernel_size=(1, 1), stride=(1, 1), bias=False)
            (bn3): BatchNorm2d(88, eps=1e-05, momentum=0.1, affine=True, track_running_stats=True)
          )
          (2): InvertedResidual(
            (conv_pw): Conv2d(88, 528, kernel_size=(1, 1), stride=(1, 1), bias=False)
            (bn1): BatchNorm2d(528, eps=1e-05, momentum=0.1, affine=True, track_running_stats=True)
            (act1): SiLU(inplace=True)
            (conv_dw): Conv2d(528, 528, kernel_size=(3, 3), stride=(1, 1), padding=(1, 1), groups=528, bias=False)
            (bn2): BatchNorm2d(528, eps=1e-05, momentum=0.1, affine=True, track_running_stats=True)
            (act2): SiLU(inplace=True)
            (se): SqueezeExcite(
              (conv_reduce): Conv2d(528, 22, kernel_size=(1, 1), stride=(1, 1))
              (act1): SiLU(inplace=True)
              (conv_expand): Conv2d(22, 528, kernel_size=(1, 1), stride=(1, 1))
              (gate): Sigmoid()
            )
            (conv_pwl): Conv2d(528, 88, kernel_size=(1, 1), stride=(1, 1), bias=False)
            (bn3): BatchNorm2d(88, eps=1e-05, momentum=0.1, affine=True, track_running_stats=True)
          )
          (3): InvertedResidual(
            (conv_pw): Conv2d(88, 528, kernel_size=(1, 1), stride=(1, 1), bias=False)
            (bn1): BatchNorm2d(528, eps=1e-05, momentum=0.1, affine=True, track_running_stats=True)
            (act1): SiLU(inplace=True)
            (conv_dw): Conv2d(528, 528, kernel_size=(3, 3), stride=(1, 1), padding=(1, 1), groups=528, bias=False)
            (bn2): BatchNorm2d(528, eps=1e-05, momentum=0.1, affine=True, track_running_stats=True)
            (act2): SiLU(inplace=True)
            (se): SqueezeExcite(
              (conv_reduce): Conv2d(528, 22, kernel_size=(1, 1), stride=(1, 1))
              (act1): SiLU(inplace=True)
              (conv_expand): Conv2d(22, 528, kernel_size=(1, 1), stride=(1, 1))
              (gate): Sigmoid()
            )
            (conv_pwl): Conv2d(528, 88, kernel_size=(1, 1), stride=(1, 1), bias=False)
            (bn3): BatchNorm2d(88, eps=1e-05, momentum=0.1, affine=True, track_running_stats=True)
          )
        )
        (4): Sequential(
          (0): InvertedResidual(
            (conv_pw): Conv2d(88, 528, kernel_size=(1, 1), stride=(1, 1), bias=False)
            (bn1): BatchNorm2d(528, eps=1e-05, momentum=0.1, affine=True, track_running_stats=True)
            (act1): SiLU(inplace=True)
            (conv_dw): Conv2d(528, 528, kernel_size=(5, 5), stride=(1, 1), padding=(2, 2), groups=528, bias=False)
            (bn2): BatchNorm2d(528, eps=1e-05, momentum=0.1, affine=True, track_running_stats=True)
            (act2): SiLU(inplace=True)
            (se): SqueezeExcite(
              (conv_reduce): Conv2d(528, 22, kernel_size=(1, 1), stride=(1, 1))
              (act1): SiLU(inplace=True)
              (conv_expand): Conv2d(22, 528, kernel_size=(1, 1), stride=(1, 1))
              (gate): Sigmoid()
            )
            (conv_pwl): Conv2d(528, 120, kernel_size=(1, 1), stride=(1, 1), bias=False)
            (bn3): BatchNorm2d(120, eps=1e-05, momentum=0.1, affine=True, track_running_stats=True)
          )
          (1): InvertedResidual(
            (conv_pw): Conv2d(120, 720, kernel_size=(1, 1), stride=(1, 1), bias=False)
            (bn1): BatchNorm2d(720, eps=1e-05, momentum=0.1, affine=True, track_running_stats=True)
            (act1): SiLU(inplace=True)
            (conv_dw): Conv2d(720, 720, kernel_size=(5, 5), stride=(1, 1), padding=(2, 2), groups=720, bias=False)
            (bn2): BatchNorm2d(720, eps=1e-05, momentum=0.1, affine=True, track_running_stats=True)
            (act2): SiLU(inplace=True)
            (se): SqueezeExcite(
              (conv_reduce): Conv2d(720, 30, kernel_size=(1, 1), stride=(1, 1))
              (act1): SiLU(inplace=True)
              (conv_expand): Conv2d(30, 720, kernel_size=(1, 1), stride=(1, 1))
              (gate): Sigmoid()
            )
            (conv_pwl): Conv2d(720, 120, kernel_size=(1, 1), stride=(1, 1), bias=False)
            (bn3): BatchNorm2d(120, eps=1e-05, momentum=0.1, affine=True, track_running_stats=True)
          )
          (2): InvertedResidual(
            (conv_pw): Conv2d(120, 720, kernel_size=(1, 1), stride=(1, 1), bias=False)
            (bn1): BatchNorm2d(720, eps=1e-05, momentum=0.1, affine=True, track_running_stats=True)
            (act1): SiLU(inplace=True)
            (conv_dw): Conv2d(720, 720, kernel_size=(5, 5), stride=(1, 1), padding=(2, 2), groups=720, bias=False)
            (bn2): BatchNorm2d(720, eps=1e-05, momentum=0.1, affine=True, track_running_stats=True)
            (act2): SiLU(inplace=True)
            (se): SqueezeExcite(
              (conv_reduce): Conv2d(720, 30, kernel_size=(1, 1), stride=(1, 1))
              (act1): SiLU(inplace=True)
              (conv_expand): Conv2d(30, 720, kernel_size=(1, 1), stride=(1, 1))
              (gate): Sigmoid()
            )
            (conv_pwl): Conv2d(720, 120, kernel_size=(1, 1), stride=(1, 1), bias=False)
            (bn3): BatchNorm2d(120, eps=1e-05, momentum=0.1, affine=True, track_running_stats=True)
          )
          (3): InvertedResidual(
            (conv_pw): Conv2d(120, 720, kernel_size=(1, 1), stride=(1, 1), bias=False)
            (bn1): BatchNorm2d(720, eps=1e-05, momentum=0.1, affine=True, track_running_stats=True)
            (act1): SiLU(inplace=True)
            (conv_dw): Conv2d(720, 720, kernel_size=(5, 5), stride=(1, 1), padding=(2, 2), groups=720, bias=False)
            (bn2): BatchNorm2d(720, eps=1e-05, momentum=0.1, affine=True, track_running_stats=True)
            (act2): SiLU(inplace=True)
            (se): SqueezeExcite(
              (conv_reduce): Conv2d(720, 30, kernel_size=(1, 1), stride=(1, 1))
              (act1): SiLU(inplace=True)
              (conv_expand): Conv2d(30, 720, kernel_size=(1, 1), stride=(1, 1))
              (gate): Sigmoid()
            )
            (conv_pwl): Conv2d(720, 120, kernel_size=(1, 1), stride=(1, 1), bias=False)
            (bn3): BatchNorm2d(120, eps=1e-05, momentum=0.1, affine=True, track_running_stats=True)
          )
        )
        (5): Sequential(
          (0): InvertedResidual(
            (conv_pw): Conv2d(120, 720, kernel_size=(1, 1), stride=(1, 1), bias=False)
            (bn1): BatchNorm2d(720, eps=1e-05, momentum=0.1, affine=True, track_running_stats=True)
            (act1): SiLU(inplace=True)
            (conv_dw): Conv2d(720, 720, kernel_size=(5, 5), stride=(2, 2), padding=(2, 2), groups=720, bias=False)
            (bn2): BatchNorm2d(720, eps=1e-05, momentum=0.1, affine=True, track_running_stats=True)
            (act2): SiLU(inplace=True)
            (se): SqueezeExcite(
              (conv_reduce): Conv2d(720, 30, kernel_size=(1, 1), stride=(1, 1))
              (act1): SiLU(inplace=True)
              (conv_expand): Conv2d(30, 720, kernel_size=(1, 1), stride=(1, 1))
              (gate): Sigmoid()
            )
            (conv_pwl): Conv2d(720, 208, kernel_size=(1, 1), stride=(1, 1), bias=False)
            (bn3): BatchNorm2d(208, eps=1e-05, momentum=0.1, affine=True, track_running_stats=True)
          )
          (1): InvertedResidual(
            (conv_pw): Conv2d(208, 1248, kernel_size=(1, 1), stride=(1, 1), bias=False)
            (bn1): BatchNorm2d(1248, eps=1e-05, momentum=0.1, affine=True, track_running_stats=True)
            (act1): SiLU(inplace=True)
            (conv_dw): Conv2d(1248, 1248, kernel_size=(5, 5), stride=(1, 1), padding=(2, 2), groups=1248, bias=False)
            (bn2): BatchNorm2d(1248, eps=1e-05, momentum=0.1, affine=True, track_running_stats=True)
            (act2): SiLU(inplace=True)
            (se): SqueezeExcite(
              (conv_reduce): Conv2d(1248, 52, kernel_size=(1, 1), stride=(1, 1))
              (act1): SiLU(inplace=True)
              (conv_expand): Conv2d(52, 1248, kernel_size=(1, 1), stride=(1, 1))
              (gate): Sigmoid()
            )
            (conv_pwl): Conv2d(1248, 208, kernel_size=(1, 1), stride=(1, 1), bias=False)
            (bn3): BatchNorm2d(208, eps=1e-05, momentum=0.1, affine=True, track_running_stats=True)
          )
          (2): InvertedResidual(
            (conv_pw): Conv2d(208, 1248, kernel_size=(1, 1), stride=(1, 1), bias=False)
            (bn1): BatchNorm2d(1248, eps=1e-05, momentum=0.1, affine=True, track_running_stats=True)
            (act1): SiLU(inplace=True)
            (conv_dw): Conv2d(1248, 1248, kernel_size=(5, 5), stride=(1, 1), padding=(2, 2), groups=1248, bias=False)
            (bn2): BatchNorm2d(1248, eps=1e-05, momentum=0.1, affine=True, track_running_stats=True)
            (act2): SiLU(inplace=True)
            (se): SqueezeExcite(
              (conv_reduce): Conv2d(1248, 52, kernel_size=(1, 1), stride=(1, 1))
              (act1): SiLU(inplace=True)
              (conv_expand): Conv2d(52, 1248, kernel_size=(1, 1), stride=(1, 1))
              (gate): Sigmoid()
            )
            (conv_pwl): Conv2d(1248, 208, kernel_size=(1, 1), stride=(1, 1), bias=False)
            (bn3): BatchNorm2d(208, eps=1e-05, momentum=0.1, affine=True, track_running_stats=True)
          )
          (3): InvertedResidual(
            (conv_pw): Conv2d(208, 1248, kernel_size=(1, 1), stride=(1, 1), bias=False)
            (bn1): BatchNorm2d(1248, eps=1e-05, momentum=0.1, affine=True, track_running_stats=True)
            (act1): SiLU(inplace=True)
            (conv_dw): Conv2d(1248, 1248, kernel_size=(5, 5), stride=(1, 1), padding=(2, 2), groups=1248, bias=False)
            (bn2): BatchNorm2d(1248, eps=1e-05, momentum=0.1, affine=True, track_running_stats=True)
            (act2): SiLU(inplace=True)
            (se): SqueezeExcite(
              (conv_reduce): Conv2d(1248, 52, kernel_size=(1, 1), stride=(1, 1))
              (act1): SiLU(inplace=True)
              (conv_expand): Conv2d(52, 1248, kernel_size=(1, 1), stride=(1, 1))
              (gate): Sigmoid()
            )
            (conv_pwl): Conv2d(1248, 208, kernel_size=(1, 1), stride=(1, 1), bias=False)
            (bn3): BatchNorm2d(208, eps=1e-05, momentum=0.1, affine=True, track_running_stats=True)
          )
          (4): InvertedResidual(
            (conv_pw): Conv2d(208, 1248, kernel_size=(1, 1), stride=(1, 1), bias=False)
            (bn1): BatchNorm2d(1248, eps=1e-05, momentum=0.1, affine=True, track_running_stats=True)
            (act1): SiLU(inplace=True)
            (conv_dw): Conv2d(1248, 1248, kernel_size=(5, 5), stride=(1, 1), padding=(2, 2), groups=1248, bias=False)
            (bn2): BatchNorm2d(1248, eps=1e-05, momentum=0.1, affine=True, track_running_stats=True)
            (act2): SiLU(inplace=True)
            (se): SqueezeExcite(
              (conv_reduce): Conv2d(1248, 52, kernel_size=(1, 1), stride=(1, 1))
              (act1): SiLU(inplace=True)
              (conv_expand): Conv2d(52, 1248, kernel_size=(1, 1), stride=(1, 1))
              (gate): Sigmoid()
            )
            (conv_pwl): Conv2d(1248, 208, kernel_size=(1, 1), stride=(1, 1), bias=False)
            (bn3): BatchNorm2d(208, eps=1e-05, momentum=0.1, affine=True, track_running_stats=True)
          )
        )
        (6): Sequential(
          (0): InvertedResidual(
            (conv_pw): Conv2d(208, 1248, kernel_size=(1, 1), stride=(1, 1), bias=False)
            (bn1): BatchNorm2d(1248, eps=1e-05, momentum=0.1, affine=True, track_running_stats=True)
            (act1): SiLU(inplace=True)
            (conv_dw): Conv2d(1248, 1248, kernel_size=(3, 3), stride=(1, 1), padding=(1, 1), groups=1248, bias=False)
            (bn2): BatchNorm2d(1248, eps=1e-05, momentum=0.1, affine=True, track_running_stats=True)
            (act2): SiLU(inplace=True)
            (se): SqueezeExcite(
              (conv_reduce): Conv2d(1248, 52, kernel_size=(1, 1), stride=(1, 1))
              (act1): SiLU(inplace=True)
              (conv_expand): Conv2d(52, 1248, kernel_size=(1, 1), stride=(1, 1))
              (gate): Sigmoid()
            )
            (conv_pwl): Conv2d(1248, 352, kernel_size=(1, 1), stride=(1, 1), bias=False)
            (bn3): BatchNorm2d(352, eps=1e-05, momentum=0.1, affine=True, track_running_stats=True)
          )
          (1): InvertedResidual(
            (conv_pw): Conv2d(352, 2112, kernel_size=(1, 1), stride=(1, 1), bias=False)
            (bn1): BatchNorm2d(2112, eps=1e-05, momentum=0.1, affine=True, track_running_stats=True)
            (act1): SiLU(inplace=True)
            (conv_dw): Conv2d(2112, 2112, kernel_size=(3, 3), stride=(1, 1), padding=(1, 1), groups=2112, bias=False)
            (bn2): BatchNorm2d(2112, eps=1e-05, momentum=0.1, affine=True, track_running_stats=True)
            (act2): SiLU(inplace=True)
            (se): SqueezeExcite(
              (conv_reduce): Conv2d(2112, 88, kernel_size=(1, 1), stride=(1, 1))
              (act1): SiLU(inplace=True)
              (conv_expand): Conv2d(88, 2112, kernel_size=(1, 1), stride=(1, 1))
              (gate): Sigmoid()
            )
            (conv_pwl): Conv2d(2112, 352, kernel_size=(1, 1), stride=(1, 1), bias=False)
            (bn3): BatchNorm2d(352, eps=1e-05, momentum=0.1, affine=True, track_running_stats=True)
          )
        )
      )
      (conv_head): Conv2d(352, 1408, kernel_size=(1, 1), stride=(1, 1), bias=False)
      (bn2): BatchNorm2d(1408, eps=1e-05, momentum=0.1, affine=True, track_running_stats=True)
      (act2): SiLU(inplace=True)
      (global_pool): SelectAdaptivePool2d (pool_type=avg, flatten=Flatten(start_dim=1, end_dim=-1))
      (classifier): Identity()
    )
  )
)
Start training
  0%|          | 0/1055 [00:00<?, ?it/s]/work/dlclarge2/sukthank-ZCP_Competition/FR-NAS/src/head/metrics.py:534: UserWarning: indexing with dtype torch.uint8 is now deprecated, please use a dtype torch.bool instead. (Triggered internally at  ../aten/src/ATen/native/IndexingUtils.h:28.)
…
